…
        "tabular_model = TabularModel(emb_szs=emb_szs, n_cont = len(cont_names), out_sz=tab_out_sz, layers=tab_layers, ps=dropout_prob_tab)\n",
        "tabular_model"
      ],
      "execution_count": 27,
      "outputs": [
        {
          "output_type": "stream",
          "name": "stdout",
          "text": [
            "emb_szs: [(3, 3), (3, 3), (3, 3), (3, 3), (3, 3), (3, 3), (3, 3), (3, 3)]\n"
          ]
        },
        {
          "output_type": "execute_result",
          "data": {
            "text/plain": [
              "TabularModel(\n",
              "  (embeds): ModuleList(\n",
              "    (0): Embedding(3, 3)\n",
              "    (1): Embedding(3, 3)\n",
              "    (2): Embedding(3, 3)\n",
              "    (3): Embedding(3, 3)\n",
              "    (4): Embedding(3, 3)\n",
              "    (5): Embedding(3, 3)\n",
              "    (6): Embedding(3, 3)\n",
              "    (7): Embedding(3, 3)\n",
              "  )\n",
              "  (emb_drop): Dropout(p=0.0, inplace=False)\n",
              "  (bn_cont): BatchNorm1d(6, eps=1e-05, momentum=0.1, affine=True, track_running_stats=True)\n",
              "  (layers): Sequential(\n",
              "    (0): Linear(in_features=30, out_features=100, bias=True)\n",
              "    (1): ReLU(inplace=True)\n",
              "    (2): BatchNorm1d(100, eps=1e-05, momentum=0.1, affine=True, track_running_stats=True)\n",
              "    (3): Dropout(p=0.2, inplace=False)\n",
              "    (4): Linear(in_features=100, out_features=200, bias=True)\n",
              "    (5): ReLU(inplace=True)\n",
              "    (6): BatchNorm1d(200, eps=1e-05, momentum=0.1, affine=True, track_running_stats=True)\n",
              "    (7): Dropout(p=0.2, inplace=False)\n",
              "    (8): Linear(in_features=200, out_features=18, bias=True)\n",
              "  )\n",
              ")"
            ]
          },
          "metadata": {},
          "execution_count": 27
        }
      ]
    },
    {
      "cell_type": "markdown",
      "metadata": {
        "id": "qJ_WcBtBoHGo"
      },
      "source": [
        "## **The CNN model** \n",
        "Using pretrained xrv.models.DenseNet for transfer learning"
…
      "metadata": {
        "pycharm": {
          "name": "#%%\n"
        },
        "colab": {
          "base_uri": "https://localhost:8080/"
        },
        "id": "qt3V1vTtCPL2",
        "outputId": "56aab67e-1276-4bca-ca0d-3b899f11b137"
      },
      "source": [
        "img_tabular_model"
      ],
      "execution_count": 32,
      "outputs": [
        {
          "output_type": "execute_result",
          "data": {
            "text/plain": [
              "CNNTabularModel(\n",
              "  (cnn_model): DenseNet(\n",
              "    (features): Sequential(\n",
              "      (conv0): Conv2d(3, 64, kernel_size=(7, 7), stride=(2, 2), padding=(3, 3), bias=False)\n",
              "      (norm0): BatchNorm2d(64, eps=1e-05, momentum=0.1, affine=True, track_running_stats=True)\n",
              "      (relu0): ReLU(inplace=True)\n",
              "      (pool0): MaxPool2d(kernel_size=3, stride=2, padding=1, dilation=1, ceil_mode=False)\n",
              "      (denseblock1): _DenseBlock(\n",
              "        (denselayer1): _DenseLayer(\n",
              "          (norm1): BatchNorm2d(64, eps=1e-05, momentum=0.1, affine=True, track_running_stats=True)\n",
              "          (relu1): ReLU(inplace=True)\n",
              "          (conv1): Conv2d(64, 128, kernel_size=(1, 1), stride=(1, 1), bias=False)\n",
              "          (norm2): BatchNorm2d(128, eps=1e-05, momentum=0.1, affine=True, track_running_stats=True)\n",
              "          (relu2): ReLU(inplace=True)\n",
              "          (conv2): Conv2d(128, 32, kernel_size=(3, 3), stride=(1, 1), padding=(1, 1), bias=False)\n",
              "        )\n",
              "        (denselayer2): _DenseLayer(\n",
              "          (norm1): BatchNorm2d(96, eps=1e-05, momentum=0.1, affine=True, track_running_stats=True)\n",
              "          (relu1): ReLU(inplace=True)\n",
              "          (conv1): Conv2d(96, 128, kernel_size=(1, 1), stride=(1, 1), bias=False)\n",
              "          (norm2): BatchNorm2d(128, eps=1e-05, momentum=0.1, affine=True, track_running_stats=True)\n",
              "          (relu2): ReLU(inplace=True)\n",
              "          (conv2): Conv2d(128, 32, kernel_size=(3, 3), stride=(1, 1), padding=(1, 1), bias=False)\n",
              "        )\n",
              "        (denselayer3): _DenseLayer(\n",
              "          (norm1): BatchNorm2d(128, eps=1e-05, momentum=0.1, affine=True, track_running_stats=True)\n",
              "          (relu1): ReLU(inplace=True)\n",
              "          (conv1): Conv2d(128, 128, kernel_size=(1, 1), stride=(1, 1), bias=False)\n",
              "          (norm2): BatchNorm2d(128, eps=1e-05, momentum=0.1, affine=True, track_running_stats=True)\n",
              "          (relu2): ReLU(inplace=True)\n",
              "          (conv2): Conv2d(128, 32, kernel_size=(3, 3), stride=(1, 1), padding=(1, 1), bias=False)\n",
              "        )\n",
              "        (denselayer4): _DenseLayer(\n",
              "          (norm1): BatchNorm2d(160, eps=1e-05, momentum=0.1, affine=True, track_running_stats=True)\n",
              "          (relu1): ReLU(inplace=True)\n",
              "          (conv1): Conv2d(160, 128, kernel_size=(1, 1), stride=(1, 1), bias=False)\n",
              "          (norm2): BatchNorm2d(128, eps=1e-05, momentum=0.1, affine=True, track_running_stats=True)\n",
              "          (relu2): ReLU(inplace=True)\n",
              "          (conv2): Conv2d(128, 32, kernel_size=(3, 3), stride=(1, 1), padding=(1, 1), bias=False)\n",
              "        )\n",
              "        (denselayer5): _DenseLayer(\n",
              "          (norm1): BatchNorm2d(192, eps=1e-05, momentum=0.1, affine=True, track_running_stats=True)\n",
              "          (relu1): ReLU(inplace=True)\n",
              "          (conv1): Conv2d(192, 128, kernel_size=(1, 1), stride=(1, 1), bias=False)\n",
              "          (norm2): BatchNorm2d(128, eps=1e-05, momentum=0.1, affine=True, track_running_stats=True)\n",
              "          (relu2): ReLU(inplace=True)\n",
              "          (conv2): Conv2d(128, 32, kernel_size=(3, 3), stride=(1, 1), padding=(1, 1), bias=False)\n",
              "        )\n",
              "        (denselayer6): _DenseLayer(\n",
              "          (norm1): BatchNorm2d(224, eps=1e-05, momentum=0.1, affine=True, track_running_stats=True)\n",
              "          (relu1): ReLU(inplace=True)\n",
              "          (conv1): Conv2d(224, 128, kernel_size=(1, 1), stride=(1, 1), bias=False)\n",
              "          (norm2): BatchNorm2d(128, eps=1e-05, momentum=0.1, affine=True, track_running_stats=True)\n",
              "          (relu2): ReLU(inplace=True)\n",
              "          (conv2): Conv2d(128, 32, kernel_size=(3, 3), stride=(1, 1), padding=(1, 1), bias=False)\n",
              "        )\n",
              "      )\n",
              "      (transition1): _Transition(\n",
              "        (norm): BatchNorm2d(256, eps=1e-05, momentum=0.1, affine=True, track_running_stats=True)\n",
              "        (relu): ReLU(inplace=True)\n",
              "        (conv): Conv2d(256, 128, kernel_size=(1, 1), stride=(1, 1), bias=False)\n",
              "        (pool): AvgPool2d(kernel_size=2, stride=2, padding=0)\n",
              "      )\n",
              "      (denseblock2): _DenseBlock(\n",
              "        (denselayer1): _DenseLayer(\n",
              "          (norm1): BatchNorm2d(128, eps=1e-05, momentum=0.1, affine=True, track_running_stats=True)\n",
              "          (relu1): ReLU(inplace=True)\n",
              "          (conv1): Conv2d(128, 128, kernel_size=(1, 1), stride=(1, 1), bias=False)\n",
              "          (norm2): BatchNorm2d(128, eps=1e-05, momentum=0.1, affine=True, track_running_stats=True)\n",
              "          (relu2): ReLU(inplace=True)\n",
              "          (conv2): Conv2d(128, 32, kernel_size=(3, 3), stride=(1, 1), padding=(1, 1), bias=False)\n",
              "        )\n",
              "        (denselayer2): _DenseLayer(\n",
              "          (norm1): BatchNorm2d(160, eps=1e-05, momentum=0.1, affine=True, track_running_stats=True)\n",
              "          (relu1): ReLU(inplace=True)\n",
              "          (conv1): Conv2d(160, 128, kernel_size=(1, 1), stride=(1, 1), bias=False)\n",
              "          (norm2): BatchNorm2d(128, eps=1e-05, momentum=0.1, affine=True, track_running_stats=True)\n",
              "          (relu2): ReLU(inplace=True)\n",
              "          (conv2): Conv2d(128, 32, kernel_size=(3, 3), stride=(1, 1), padding=(1, 1), bias=False)\n",
              "        )\n",
              "        (denselayer3): _DenseLayer(\n",
              "          (norm1): BatchNorm2d(192, eps=1e-05, momentum=0.1, affine=True, track_running_stats=True)\n",
              "          (relu1): ReLU(inplace=True)\n",
              "          (conv1): Conv2d(192, 128, kernel_size=(1, 1), stride=(1, 1), bias=False)\n",
              "          (norm2): BatchNorm2d(128, eps=1e-05, momentum=0.1, affine=True, track_running_stats=True)\n",
              "          (relu2): ReLU(inplace=True)\n",
              "          (conv2): Conv2d(128, 32, kernel_size=(3, 3), stride=(1, 1), padding=(1, 1), bias=False)\n",
              "        )\n",
              "        (denselayer4): _DenseLayer(\n",
              "          (norm1): BatchNorm2d(224, eps=1e-05, momentum=0.1, affine=True, track_running_stats=True)\n",
              "          (relu1): ReLU(inplace=True)\n",
              "          (conv1): Conv2d(224, 128, kernel_size=(1, 1), stride=(1, 1), bias=False)\n",
              "          (norm2): BatchNorm2d(128, eps=1e-05, momentum=0.1, affine=True, track_running_stats=True)\n",
              "          (relu2): ReLU(inplace=True)\n",
              "          (conv2): Conv2d(128, 32, kernel_size=(3, 3), stride=(1, 1), padding=(1, 1), bias=False)\n",
              "        )\n",
              "        (denselayer5): _DenseLayer(\n",
              "          (norm1): BatchNorm2d(256, eps=1e-05, momentum=0.1, affine=True, track_running_stats=True)\n",
              "          (relu1): ReLU(inplace=True)\n",
              "          (conv1): Conv2d(256, 128, kernel_size=(1, 1), stride=(1, 1), bias=False)\n",
              "          (norm2): BatchNorm2d(128, eps=1e-05, momentum=0.1, affine=True, track_running_stats=True)\n",
              "          (relu2): ReLU(inplace=True)\n",
              "          (conv2): Conv2d(128, 32, kernel_size=(3, 3), stride=(1, 1), padding=(1, 1), bias=False)\n",
              "        )\n",
              "        (denselayer6): _DenseLayer(\n",
              "          (norm1): BatchNorm2d(288, eps=1e-05, momentum=0.1, affine=True, track_running_stats=True)\n",
              "          (relu1): ReLU(inplace=True)\n",
              "          (conv1): Conv2d(288, 128, kernel_size=(1, 1), stride=(1, 1), bias=False)\n",
              "          (norm2): BatchNorm2d(128, eps=1e-05, momentum=0.1, affine=True, track_running_stats=True)\n",
              "          (relu2): ReLU(inplace=True)\n",
              "          (conv2): Conv2d(128, 32, kernel_size=(3, 3), stride=(1, 1), padding=(1, 1), bias=False)\n",
              "        )\n",
              "        (denselayer7): _DenseLayer(\n",
              "          (norm1): BatchNorm2d(320, eps=1e-05, momentum=0.1, affine=True, track_running_stats=True)\n",
              "          (relu1): ReLU(inplace=True)\n",
              "          (conv1): Conv2d(320, 128, kernel_size=(1, 1), stride=(1, 1), bias=False)\n",
              "          (norm2): BatchNorm2d(128, eps=1e-05, momentum=0.1, affine=True, track_running_stats=True)\n",
              "          (relu2): ReLU(inplace=True)\n",
              "          (conv2): Conv2d(128, 32, kernel_size=(3, 3), stride=(1, 1), padding=(1, 1), bias=False)\n",
              "        )\n",
              "        (denselayer8): _DenseLayer(\n",
              "          (norm1): BatchNorm2d(352, eps=1e-05, momentum=0.1, affine=True, track_running_stats=True)\n",
              "          (relu1): ReLU(inplace=True)\n",
              "          (conv1): Conv2d(352, 128, kernel_size=(1, 1), stride=(1, 1), bias=False)\n",
              "          (norm2): BatchNorm2d(128, eps=1e-05, momentum=0.1, affine=True, track_running_stats=True)\n",
              "          (relu2): ReLU(inplace=True)\n",
              "          (conv2): Conv2d(128, 32, kernel_size=(3, 3), stride=(1, 1), padding=(1, 1), bias=False)\n",
              "        )\n",
              "        (denselayer9): _DenseLayer(\n",
              "          (norm1): BatchNorm2d(384, eps=1e-05, momentum=0.1, affine=True, track_running_stats=True)\n",
              "          (relu1): ReLU(inplace=True)\n",
              "          (conv1): Conv2d(384, 128, kernel_size=(1, 1), stride=(1, 1), bias=False)\n",
              "          (norm2): BatchNorm2d(128, eps=1e-05, momentum=0.1, affine=True, track_running_stats=True)\n",
              "          (relu2): ReLU(inplace=True)\n",
              "          (conv2): Conv2d(128, 32, kernel_size=(3, 3), stride=(1, 1), padding=(1, 1), bias=False)\n",
              "        )\n",
              "        (denselayer10): _DenseLayer(\n",
              "          (norm1): BatchNorm2d(416, eps=1e-05, momentum=0.1, affine=True, track_running_stats=True)\n",
              "          (relu1): ReLU(inplace=True)\n",
              "          (conv1): Conv2d(416, 128, kernel_size=(1, 1), stride=(1, 1), bias=False)\n",
              "          (norm2): BatchNorm2d(128, eps=1e-05, momentum=0.1, affine=True, track_running_stats=True)\n",
              "          (relu2): ReLU(inplace=True)\n",
              "          (conv2): Conv2d(128, 32, kernel_size=(3, 3), stride=(1, 1), padding=(1, 1), bias=False)\n",
              "        )\n",
              "        (denselayer11): _DenseLayer(\n",
              "          (norm1): BatchNorm2d(448, eps=1e-05, momentum=0.1, affine=True, track_running_stats=True)\n",
              "          (relu1): ReLU(inplace=True)\n",
              "          (conv1): Conv2d(448, 128, kernel_size=(1, 1), stride=(1, 1), bias=False)\n",
              "          (norm2): BatchNorm2d(128, eps=1e-05, momentum=0.1, affine=True, track_running_stats=True)\n",
              "          (relu2): ReLU(inplace=True)\n",
              "          (conv2): Conv2d(128, 32, kernel_size=(3, 3), stride=(1, 1), padding=(1, 1), bias=False)\n",
              "        )\n",
              "        (denselayer12): _DenseLayer(\n",
              "          (norm1): BatchNorm2d(480, eps=1e-05, momentum=0.1, affine=True, track_running_stats=True)\n",
              "          (relu1): ReLU(inplace=True)\n",
              "          (conv1): Conv2d(480, 128, kernel_size=(1, 1), stride=(1, 1), bias=False)\n",
              "          (norm2): BatchNorm2d(128, eps=1e-05, momentum=0.1, affine=True, track_running_stats=True)\n",
              "          (relu2): ReLU(inplace=True)\n",
              "          (conv2): Conv2d(128, 32, kernel_size=(3, 3), stride=(1, 1), padding=(1, 1), bias=False)\n",
              "        )\n",
              "      )\n",
              "      (transition2): _Transition(\n",
              "        (norm): BatchNorm2d(512, eps=1e-05, momentum=0.1, affine=True, track_running_stats=True)\n",
              "        (relu): ReLU(inplace=True)\n",
              "        (conv): Conv2d(512, 256, kernel_size=(1, 1), stride=(1, 1), bias=False)\n",
              "        (pool): AvgPool2d(kernel_size=2, stride=2, padding=0)\n",
              "      )\n",
              "      (denseblock3): _DenseBlock(\n",
              "        (denselayer1): _DenseLayer(\n",
              "          (norm1): BatchNorm2d(256, eps=1e-05, momentum=0.1, affine=True, track_running_stats=True)\n",
              "          (relu1): ReLU(inplace=True)\n",
              "          (conv1): Conv2d(256, 128, kernel_size=(1, 1), stride=(1, 1), bias=False)\n",
              "          (norm2): BatchNorm2d(128, eps=1e-05, momentum=0.1, affine=True, track_running_stats=True)\n",
              "          (relu2): ReLU(inplace=True)\n",
              "          (conv2): Conv2d(128, 32, kernel_size=(3, 3), stride=(1, 1), padding=(1, 1), bias=False)\n",
              "        )\n",
              "        (denselayer2): _DenseLayer(\n",
              "          (norm1): BatchNorm2d(288, eps=1e-05, momentum=0.1, affine=True, track_running_stats=True)\n",
              "          (relu1): ReLU(inplace=True)\n",
              "          (conv1): Conv2d(288, 128, kernel_size=(1, 1), stride=(1, 1), bias=False)\n",
              "          (norm2): BatchNorm2d(128, eps=1e-05, momentum=0.1, affine=True, track_running_stats=True)\n",
              "          (relu2): ReLU(inplace=True)\n",
              "          (conv2): Conv2d(128, 32, kernel_size=(3, 3), stride=(1, 1), padding=(1, 1), bias=False)\n",
              "        )\n",
              "        (denselayer3): _DenseLayer(\n",
              "          (norm1): BatchNorm2d(320, eps=1e-05, momentum=0.1, affine=True, track_running_stats=True)\n",
              "          (relu1): ReLU(inplace=True)\n",
              "          (conv1): Conv2d(320, 128, kernel_size=(1, 1), stride=(1, 1), bias=False)\n",
              "          (norm2): BatchNorm2d(128, eps=1e-05, momentum=0.1, affine=True, track_running_stats=True)\n",
              "          (relu2): ReLU(inplace=True)\n",
              "          (conv2): Conv2d(128, 32, kernel_size=(3, 3), stride=(1, 1), padding=(1, 1), bias=False)\n",
              "        )\n",
              "        (denselayer4): _DenseLayer(\n",
              "          (norm1): BatchNorm2d(352, eps=1e-05, momentum=0.1, affine=True, track_running_stats=True)\n",
              "          (relu1): ReLU(inplace=True)\n",
              "          (conv1): Conv2d(352, 128, kernel_size=(1, 1), stride=(1, 1), bias=False)\n",
              "          (norm2): BatchNorm2d(128, eps=1e-05, momentum=0.1, affine=True, track_running_stats=True)\n",
              "          (relu2): ReLU(inplace=True)\n",
              "          (conv2): Conv2d(128, 32, kernel_size=(3, 3), stride=(1, 1), padding=(1, 1), bias=False)\n",
              "        )\n",
              "        (denselayer5): _DenseLayer(\n",
              "          (norm1): BatchNorm2d(384, eps=1e-05, momentum=0.1, affine=True, track_running_stats=True)\n",
              "          (relu1): ReLU(inplace=True)\n",
              "          (conv1): Conv2d(384, 128, kernel_size=(1, 1), stride=(1, 1), bias=False)\n",
              "          (norm2): BatchNorm2d(128, eps=1e-05, momentum=0.1, affine=True, track_running_stats=True)\n",
              "          (relu2): ReLU(inplace=True)\n",
              "          (conv2): Conv2d(128, 32, kernel_size=(3, 3), stride=(1, 1), padding=(1, 1), bias=False)\n",
              "        )\n",
              "        (denselayer6): _DenseLayer(\n",
              "          (norm1): BatchNorm2d(416, eps=1e-05, momentum=0.1, affine=True, track_running_stats=True)\n",
              "          (relu1): ReLU(inplace=True)\n",
              "          (conv1): Conv2d(416, 128, kernel_size=(1, 1), stride=(1, 1), bias=False)\n",
              "          (norm2): BatchNorm2d(128, eps=1e-05, momentum=0.1, affine=True, track_running_stats=True)\n",
              "          (relu2): ReLU(inplace=True)\n",
              "          (conv2): Conv2d(128, 32, kernel_size=(3, 3), stride=(1, 1), padding=(1, 1), bias=False)\n",
              "        )\n",
              "        (denselayer7): _DenseLayer(\n",
              "          (norm1): BatchNorm2d(448, eps=1e-05, momentum=0.1, affine=True, track_running_stats=True)\n",
              "          (relu1): ReLU(inplace=True)\n",
              "          (conv1): Conv2d(448, 128, kernel_size=(1, 1), stride=(1, 1), bias=False)\n",
              "          (norm2): BatchNorm2d(128, eps=1e-05, momentum=0.1, affine=True, track_running_stats=True)\n",
              "          (relu2): ReLU(inplace=True)\n",
              "          (conv2): Conv2d(128, 32, kernel_size=(3, 3), stride=(1, 1), padding=(1, 1), bias=False)\n",
              "        )\n",
              "        (denselayer8): _DenseLayer(\n",
              "          (norm1): BatchNorm2d(480, eps=1e-05, momentum=0.1, affine=True, track_running_stats=True)\n",
              "          (relu1): ReLU(inplace=True)\n",
              "          (conv1): Conv2d(480, 128, kernel_size=(1, 1), stride=(1, 1), bias=False)\n",
              "          (norm2): BatchNorm2d(128, eps=1e-05, momentum=0.1, affine=True, track_running_stats=True)\n",
              "          (relu2): ReLU(inplace=True)\n",
              "          (conv2): Conv2d(128, 32, kernel_size=(3, 3), stride=(1, 1), padding=(1, 1), bias=False)\n",
              "        )\n",
              "        (denselayer9): _DenseLayer(\n",
              "          (norm1): BatchNorm2d(512, eps=1e-05, momentum=0.1, affine=True, track_running_stats=True)\n",
              "          (relu1): ReLU(inplace=True)\n",
              "          (conv1): Conv2d(512, 128, kernel_size=(1, 1), stride=(1, 1), bias=False)\n",
              "          (norm2): BatchNorm2d(128, eps=1e-05, momentum=0.1, affine=True, track_running_stats=True)\n",
              "          (relu2): ReLU(inplace=True)\n",
              "          (conv2): Conv2d(128, 32, kernel_size=(3, 3), stride=(1, 1), padding=(1, 1), bias=False)\n",
              "        )\n",
              "        (denselayer10): _DenseLayer(\n",
              "          (norm1): BatchNorm2d(544, eps=1e-05, momentum=0.1, affine=True, track_running_stats=True)\n",
              "          (relu1): ReLU(inplace=True)\n",
              "          (conv1): Conv2d(544, 128, kernel_size=(1, 1), stride=(1, 1), bias=False)\n",
              "          (norm2): BatchNorm2d(128, eps=1e-05, momentum=0.1, affine=True, track_running_stats=True)\n",
              "          (relu2): ReLU(inplace=True)\n",
              "          (conv2): Conv2d(128, 32, kernel_size=(3, 3), stride=(1, 1), padding=(1, 1), bias=False)\n",
              "        )\n",
              "        (denselayer11): _DenseLayer(\n",
              "          (norm1): BatchNorm2d(576, eps=1e-05, momentum=0.1, affine=True, track_running_stats=True)\n",
              "          (relu1): ReLU(inplace=True)\n",
              "          (conv1): Conv2d(576, 128, kernel_size=(1, 1), stride=(1, 1), bias=False)\n",
              "          (norm2): BatchNorm2d(128, eps=1e-05, momentum=0.1, affine=True, track_running_stats=True)\n",
              "          (relu2): ReLU(inplace=True)\n",
              "          (conv2): Conv2d(128, 32, kernel_size=(3, 3), stride=(1, 1), padding=(1, 1), bias=False)\n",
              "        )\n",
              "        (denselayer12): _DenseLayer(\n",
              "          (norm1): BatchNorm2d(608, eps=1e-05, momentum=0.1, affine=True, track_running_stats=True)\n",
              "          (relu1): ReLU(inplace=True)\n",
              "          (conv1): Conv2d(608, 128, kernel_size=(1, 1), stride=(1, 1), bias=False)\n",
              "          (norm2): BatchNorm2d(128, eps=1e-05, momentum=0.1, affine=True, track_running_stats=True)\n",
              "          (relu2): ReLU(inplace=True)\n",
              "          (conv2): Conv2d(128, 32, kernel_size=(3, 3), stride=(1, 1), padding=(1, 1), bias=False)\n",
              "        )\n",
              "        (denselayer13): _DenseLayer(\n",
              "          (norm1): BatchNorm2d(640, eps=1e-05, momentum=0.1, affine=True, track_running_stats=True)\n",
              "          (relu1): ReLU(inplace=True)\n",
              "          (conv1): Conv2d(640, 128, kernel_size=(1, 1), stride=(1, 1), bias=False)\n",
              "          (norm2): BatchNorm2d(128, eps=1e-05, momentum=0.1, affine=True, track_running_stats=True)\n",
              "          (relu2): ReLU(inplace=True)\n",
              "          (conv2): Conv2d(128, 32, kernel_size=(3, 3), stride=(1, 1), padding=(1, 1), bias=False)\n",
              "        )\n",
              "        (denselayer14): _DenseLayer(\n",
              "          (norm1): BatchNorm2d(672, eps=1e-05, momentum=0.1, affine=True, track_running_stats=True)\n",
              "          (relu1): ReLU(inplace=True)\n",
              "          (conv1): Conv2d(672, 128, kernel_size=(1, 1), stride=(1, 1), bias=False)\n",
              "          (norm2): BatchNorm2d(128, eps=1e-05, momentum=0.1, affine=True, track_running_stats=True)\n",
              "          (relu2): ReLU(inplace=True)\n",
              "          (conv2): Conv2d(128, 32, kernel_size=(3, 3), stride=(1, 1), padding=(1, 1), bias=False)\n",
              "        )\n",
              "        (denselayer15): _DenseLayer(\n",
              "          (norm1): BatchNorm2d(704, eps=1e-05, momentum=0.1, affine=True, track_running_stats=True)\n",
              "          (relu1): ReLU(inplace=True)\n",
              "          (conv1): Conv2d(704, 128, kernel_size=(1, 1), stride=(1, 1), bias=False)\n",
              "          (norm2): BatchNorm2d(128, eps=1e-05, momentum=0.1, affine=True, track_running_stats=True)\n",
              "          (relu2): ReLU(inplace=True)\n",
              "          (conv2): Conv2d(128, 32, kernel_size=(3, 3), stride=(1, 1), padding=(1, 1), bias=False)\n",
              "        )\n",
              "        (denselayer16): _DenseLayer(\n",
              "          (norm1): BatchNorm2d(736, eps=1e-05, momentum=0.1, affine=True, track_running_stats=True)\n",
              "          (relu1): ReLU(inplace=True)\n",
              "          (conv1): Conv2d(736, 128, kernel_size=(1, 1), stride=(1, 1), bias=False)\n",
              "          (norm2): BatchNorm2d(128, eps=1e-05, momentum=0.1, affine=True, track_running_stats=True)\n",
              "          (relu2): ReLU(inplace=True)\n",
              "          (conv2): Conv2d(128, 32, kernel_size=(3, 3), stride=(1, 1), padding=(1, 1), bias=False)\n",
              "        )\n",
              "        (denselayer17): _DenseLayer(\n",
              "          (norm1): BatchNorm2d(768, eps=1e-05, momentum=0.1, affine=True, track_running_stats=True)\n",
              "          (relu1): ReLU(inplace=True)\n",
              "          (conv1): Conv2d(768, 128, kernel_size=(1, 1), stride=(1, 1), bias=False)\n",
              "          (norm2): BatchNorm2d(128, eps=1e-05, momentum=0.1, affine=True, track_running_stats=True)\n",
              "          (relu2): ReLU(inplace=True)\n",
              "          (conv2): Conv2d(128, 32, kernel_size=(3, 3), stride=(1, 1), padding=(1, 1), bias=False)\n",
              "        )\n",
              "        (denselayer18): _DenseLayer(\n",
              "          (norm1): BatchNorm2d(800, eps=1e-05, momentum=0.1, affine=True, track_running_stats=True)\n",
              "          (relu1): ReLU(inplace=True)\n",
              "          (conv1): Conv2d(800, 128, kernel_size=(1, 1), stride=(1, 1), bias=False)\n",
              "          (norm2): BatchNorm2d(128, eps=1e-05, momentum=0.1, affine=True, track_running_stats=True)\n",
              "          (relu2): ReLU(inplace=True)\n",
              "          (conv2): Conv2d(128, 32, kernel_size=(3, 3), stride=(1, 1), padding=(1, 1), bias=False)\n",
              "        )\n",
              "        (denselayer19): _DenseLayer(\n",
              "          (norm1): BatchNorm2d(832, eps=1e-05, momentum=0.1, affine=True, track_running_stats=True)\n",
              "          (relu1): ReLU(inplace=True)\n",
              "          (conv1): Conv2d(832, 128, kernel_size=(1, 1), stride=(1, 1), bias=False)\n",
              "          (norm2): BatchNorm2d(128, eps=1e-05, momentum=0.1, affine=True, track_running_stats=True)\n",
              "          (relu2): ReLU(inplace=True)\n",
              "          (conv2): Conv2d(128, 32, kernel_size=(3, 3), stride=(1, 1), padding=(1, 1), bias=False)\n",
              "        )\n",
              "        (denselayer20): _DenseLayer(\n",
              "          (norm1): BatchNorm2d(864, eps=1e-05, momentum=0.1, affine=True, track_running_stats=True)\n",
              "          (relu1): ReLU(inplace=True)\n",
              "          (conv1): Conv2d(864, 128, kernel_size=(1, 1), stride=(1, 1), bias=False)\n",
              "          (norm2): BatchNorm2d(128, eps=1e-05, momentum=0.1, affine=True, track_running_stats=True)\n",
              "          (relu2): ReLU(inplace=True)\n",
              "          (conv2): Conv2d(128, 32, kernel_size=(3, 3), stride=(1, 1), padding=(1, 1), bias=False)\n",
              "        )\n",
              "        (denselayer21): _DenseLayer(\n",
              "          (norm1): BatchNorm2d(896, eps=1e-05, momentum=0.1, affine=True, track_running_stats=True)\n",
              "          (relu1): ReLU(inplace=True)\n",
              "          (conv1): Conv2d(896, 128, kernel_size=(1, 1), stride=(1, 1), bias=False)\n",
              "          (norm2): BatchNorm2d(128, eps=1e-05, momentum=0.1, affine=True, track_running_stats=True)\n",
              "          (relu2): ReLU(inplace=True)\n",
              "          (conv2): Conv2d(128, 32, kernel_size=(3, 3), stride=(1, 1), padding=(1, 1), bias=False)\n",
              "        )\n",
              "        (denselayer22): _DenseLayer(\n",
              "          (norm1): BatchNorm2d(928, eps=1e-05, momentum=0.1, affine=True, track_running_stats=True)\n",
              "          (relu1): ReLU(inplace=True)\n",
              "          (conv1): Conv2d(928, 128, kernel_size=(1, 1), stride=(1, 1), bias=False)\n",
              "          (norm2): BatchNorm2d(128, eps=1e-05, momentum=0.1, affine=True, track_running_stats=True)\n",
              "          (relu2): ReLU(inplace=True)\n",
              "          (conv2): Conv2d(128, 32, kernel_size=(3, 3), stride=(1, 1), padding=(1, 1), bias=False)\n",
              "        )\n",
              "        (denselayer23): _DenseLayer(\n",
              "          (norm1): BatchNorm2d(960, eps=1e-05, momentum=0.1, affine=True, track_running_stats=True)\n",
              "          (relu1): ReLU(inplace=True)\n",
              "          (conv1): Conv2d(960, 128, kernel_size=(1, 1), stride=(1, 1), bias=False)\n",
              "          (norm2): BatchNorm2d(128, eps=1e-05, momentum=0.1, affine=True, track_running_stats=True)\n",
              "          (relu2): ReLU(inplace=True)\n",
              "          (conv2): Conv2d(128, 32, kernel_size=(3, 3), stride=(1, 1), padding=(1, 1), bias=False)\n",
              "        )\n",
              "        (denselayer24): _DenseLayer(\n",
              "          (norm1): BatchNorm2d(992, eps=1e-05, momentum=0.1, affine=True, track_running_stats=True)\n",
              "          (relu1): ReLU(inplace=True)\n",
              "          (conv1): Conv2d(992, 128, kernel_size=(1, 1), stride=(1, 1), bias=False)\n",
              "          (norm2): BatchNorm2d(128, eps=1e-05, momentum=0.1, affine=True, track_running_stats=True)\n",
              "          (relu2): ReLU(inplace=True)\n",
              "          (conv2): Conv2d(128, 32, kernel_size=(3, 3), stride=(1, 1), padding=(1, 1), bias=False)\n",
              "        )\n",
              "      )\n",
              "      (transition3): _Transition(\n",
              "        (norm): BatchNorm2d(1024, eps=1e-05, momentum=0.1, affine=True, track_running_stats=True)\n",
              "        (relu): ReLU(inplace=True)\n",
              "        (conv): Conv2d(1024, 512, kernel_size=(1, 1), stride=(1, 1), bias=False)\n",
              "        (pool): AvgPool2d(kernel_size=2, stride=2, padding=0)\n",
              "      )\n",
              "      (denseblock4): _DenseBlock(\n",
              "        (denselayer1): _DenseLayer(\n",
              "          (norm1): BatchNorm2d(512, eps=1e-05, momentum=0.1, affine=True, track_running_stats=True)\n",
              "          (relu1): ReLU(inplace=True)\n",
              "          (conv1): Conv2d(512, 128, kernel_size=(1, 1), stride=(1, 1), bias=False)\n",
              "          (norm2): BatchNorm2d(128, eps=1e-05, momentum=0.1, affine=True, track_running_stats=True)\n",
              "          (relu2): ReLU(inplace=True)\n",
              "          (conv2): Conv2d(128, 32, kernel_size=(3, 3), stride=(1, 1), padding=(1, 1), bias=False)\n",
              "        )\n",
              "        (denselayer2): _DenseLayer(\n",
              "          (norm1): BatchNorm2d(544, eps=1e-05, momentum=0.1, affine=True, track_running_stats=True)\n",
              "          (relu1): ReLU(inplace=True)\n",
              "          (conv1): Conv2d(544, 128, kernel_size=(1, 1), stride=(1, 1), bias=False)\n",
              "          (norm2): BatchNorm2d(128, eps=1e-05, momentum=0.1, affine=True, track_running_stats=True)\n",
              "          (relu2): ReLU(inplace=True)\n",
              "          (conv2): Conv2d(128, 32, kernel_size=(3, 3), stride=(1, 1), padding=(1, 1), bias=False)\n",
              "        )\n",
              "        (denselayer3): _DenseLayer(\n",
              "          (norm1): BatchNorm2d(576, eps=1e-05, momentum=0.1, affine=True, track_running_stats=True)\n",
              "          (relu1): ReLU(inplace=True)\n",
              "          (conv1): Conv2d(576, 128, kernel_size=(1, 1), stride=(1, 1), bias=False)\n",
              "          (norm2): BatchNorm2d(128, eps=1e-05, momentum=0.1, affine=True, track_running_stats=True)\n",
              "          (relu2): ReLU(inplace=True)\n",
              "          (conv2): Conv2d(128, 32, kernel_size=(3, 3), stride=(1, 1), padding=(1, 1), bias=False)\n",
              "        )\n",
              "        (denselayer4): _DenseLayer(\n",
              "          (norm1): BatchNorm2d(608, eps=1e-05, momentum=0.1, affine=True, track_running_stats=True)\n",
              "          (relu1): ReLU(inplace=True)\n",
              "          (conv1): Conv2d(608, 128, kernel_size=(1, 1), stride=(1, 1), bias=False)\n",
              "          (norm2): BatchNorm2d(128, eps=1e-05, momentum=0.1, affine=True, track_running_stats=True)\n",
              "          (relu2): ReLU(inplace=True)\n",
              "          (conv2): Conv2d(128, 32, kernel_size=(3, 3), stride=(1, 1), padding=(1, 1), bias=False)\n",
              "        )\n",
              "        (denselayer5): _DenseLayer(\n",
              "          (norm1): BatchNorm2d(640, eps=1e-05, momentum=0.1, affine=True, track_running_stats=True)\n",
              "          (relu1): ReLU(inplace=True)\n",
              "          (conv1): Conv2d(640, 128, kernel_size=(1, 1), stride=(1, 1), bias=False)\n",
              "          (norm2): BatchNorm2d(128, eps=1e-05, momentum=0.1, affine=True, track_running_stats=True)\n",
              "          (relu2): ReLU(inplace=True)\n",
              "          (conv2): Conv2d(128, 32, kernel_size=(3, 3), stride=(1, 1), padding=(1, 1), bias=False)\n",
              "        )\n",
              "        (denselayer6): _DenseLayer(\n",
              "          (norm1): BatchNorm2d(672, eps=1e-05, momentum=0.1, affine=True, track_running_stats=True)\n",
              "          (relu1): ReLU(inplace=True)\n",
              "          (conv1): Conv2d(672, 128, kernel_size=(1, 1), stride=(1, 1), bias=False)\n",
              "          (norm2): BatchNorm2d(128, eps=1e-05, momentum=0.1, affine=True, track_running_stats=True)\n",
              "          (relu2): ReLU(inplace=True)\n",
              "          (conv2): Conv2d(128, 32, kernel_size=(3, 3), stride=(1, 1), padding=(1, 1), bias=False)\n",
              "        )\n",
              "        (denselayer7): _DenseLayer(\n",
              "          (norm1): BatchNorm2d(704, eps=1e-05, momentum=0.1, affine=True, track_running_stats=True)\n",
              "          (relu1): ReLU(inplace=True)\n",
              "          (conv1): Conv2d(704, 128, kernel_size=(1, 1), stride=(1, 1), bias=False)\n",
              "          (norm2): BatchNorm2d(128, eps=1e-05, momentum=0.1, affine=True, track_running_stats=True)\n",
              "          (relu2): ReLU(inplace=True)\n",
              "          (conv2): Conv2d(128, 32, kernel_size=(3, 3), stride=(1, 1), padding=(1, 1), bias=False)\n",
              "        )\n",
              "        (denselayer8): _DenseLayer(\n",
              "          (norm1): BatchNorm2d(736, eps=1e-05, momentum=0.1, affine=True, track_running_stats=True)\n",
              "          (relu1): ReLU(inplace=True)\n",
              "          (conv1): Conv2d(736, 128, kernel_size=(1, 1), stride=(1, 1), bias=False)\n",
              "          (norm2): BatchNorm2d(128, eps=1e-05, momentum=0.1, affine=True, track_running_stats=True)\n",
              "          (relu2): ReLU(inplace=True)\n",
              "          (conv2): Conv2d(128, 32, kernel_size=(3, 3), stride=(1, 1), padding=(1, 1), bias=False)\n",
              "        )\n",
              "        (denselayer9): _DenseLayer(\n",
              "          (norm1): BatchNorm2d(768, eps=1e-05, momentum=0.1, affine=True, track_running_stats=True)\n",
              "          (relu1): ReLU(inplace=True)\n",
              "          (conv1): Conv2d(768, 128, kernel_size=(1, 1), stride=(1, 1), bias=False)\n",
              "          (norm2): BatchNorm2d(128, eps=1e-05, momentum=0.1, affine=True, track_running_stats=True)\n",
              "          (relu2): ReLU(inplace=True)\n",
              "          (conv2): Conv2d(128, 32, kernel_size=(3, 3), stride=(1, 1), padding=(1, 1), bias=False)\n",
              "        )\n",
              "        (denselayer10): _DenseLayer(\n",
              "          (norm1): BatchNorm2d(800, eps=1e-05, momentum=0.1, affine=True, track_running_stats=True)\n",
              "          (relu1): ReLU(inplace=True)\n",
              "          (conv1): Conv2d(800, 128, kernel_size=(1, 1), stride=(1, 1), bias=False)\n",
              "          (norm2): BatchNorm2d(128, eps=1e-05, momentum=0.1, affine=True, track_running_stats=True)\n",
              "          (relu2): ReLU(inplace=True)\n",
              "          (conv2): Conv2d(128, 32, kernel_size=(3, 3), stride=(1, 1), padding=(1, 1), bias=False)\n",
              "        )\n",
              "        (denselayer11): _DenseLayer(\n",
              "          (norm1): BatchNorm2d(832, eps=1e-05, momentum=0.1, affine=True, track_running_stats=True)\n",
              "          (relu1): ReLU(inplace=True)\n",
              "          (conv1): Conv2d(832, 128, kernel_size=(1, 1), stride=(1, 1), bias=False)\n",
              "          (norm2): BatchNorm2d(128, eps=1e-05, momentum=0.1, affine=True, track_running_stats=True)\n",
              "          (relu2): ReLU(inplace=True)\n",
              "          (conv2): Conv2d(128, 32, kernel_size=(3, 3), stride=(1, 1), padding=(1, 1), bias=False)\n",
              "        )\n",
              "        (denselayer12): _DenseLayer(\n",
              "          (norm1): BatchNorm2d(864, eps=1e-05, momentum=0.1, affine=True, track_running_stats=True)\n",
              "          (relu1): ReLU(inplace=True)\n",
              "          (conv1): Conv2d(864, 128, kernel_size=(1, 1), stride=(1, 1), bias=False)\n",
              "          (norm2): BatchNorm2d(128, eps=1e-05, momentum=0.1, affine=True, track_running_stats=True)\n",
              "          (relu2): ReLU(inplace=True)\n",
              "          (conv2): Conv2d(128, 32, kernel_size=(3, 3), stride=(1, 1), padding=(1, 1), bias=False)\n",
              "        )\n",
              "        (denselayer13): _DenseLayer(\n",
              "          (norm1): BatchNorm2d(896, eps=1e-05, momentum=0.1, affine=True, track_running_stats=True)\n",
              "          (relu1): ReLU(inplace=True)\n",
              "          (conv1): Conv2d(896, 128, kernel_size=(1, 1), stride=(1, 1), bias=False)\n",
              "          (norm2): BatchNorm2d(128, eps=1e-05, momentum=0.1, affine=True, track_running_stats=True)\n",
              "          (relu2): ReLU(inplace=True)\n",
              "          (conv2): Conv2d(128, 32, kernel_size=(3, 3), stride=(1, 1), padding=(1, 1), bias=False)\n",
              "        )\n",
              "        (denselayer14): _DenseLayer(\n",
              "          (norm1): BatchNorm2d(928, eps=1e-05, momentum=0.1, affine=True, track_running_stats=True)\n",
              "          (relu1): ReLU(inplace=True)\n",
              "          (conv1): Conv2d(928, 128, kernel_size=(1, 1), stride=(1, 1), bias=False)\n",
              "          (norm2): BatchNorm2d(128, eps=1e-05, momentum=0.1, affine=True, track_running_stats=True)\n",
              "          (relu2): ReLU(inplace=True)\n",
              "          (conv2): Conv2d(128, 32, kernel_size=(3, 3), stride=(1, 1), padding=(1, 1), bias=False)\n",
              "        )\n",
              "        (denselayer15): _DenseLayer(\n",
              "          (norm1): BatchNorm2d(960, eps=1e-05, momentum=0.1, affine=True, track_running_stats=True)\n",
              "          (relu1): ReLU(inplace=True)\n",
              "          (conv1): Conv2d(960, 128, kernel_size=(1, 1), stride=(1, 1), bias=False)\n",
              "          (norm2): BatchNorm2d(128, eps=1e-05, momentum=0.1, affine=True, track_running_stats=True)\n",
              "          (relu2): ReLU(inplace=True)\n",
              "          (conv2): Conv2d(128, 32, kernel_size=(3, 3), stride=(1, 1), padding=(1, 1), bias=False)\n",
              "        )\n",
              "        (denselayer16): _DenseLayer(\n",
              "          (norm1): BatchNorm2d(992, eps=1e-05, momentum=0.1, affine=True, track_running_stats=True)\n",
              "          (relu1): ReLU(inplace=True)\n",
              "          (conv1): Conv2d(992, 128, kernel_size=(1, 1), stride=(1, 1), bias=False)\n",
              "          (norm2): BatchNorm2d(128, eps=1e-05, momentum=0.1, affine=True, track_running_stats=True)\n",
              "          (relu2): ReLU(inplace=True)\n",
              "          (conv2): Conv2d(128, 32, kernel_size=(3, 3), stride=(1, 1), padding=(1, 1), bias=False)\n",
              "        )\n",
              "      )\n",
              "      (norm5): BatchNorm2d(1024, eps=1e-05, momentum=0.1, affine=True, track_running_stats=True)\n",
              "    )\n",
              "    (classifier): Linear(in_features=1024, out_features=18, bias=True)\n",
              "  )\n",
              "  (tabular_model): TabularModel(\n",
              "    (embeds): ModuleList(\n",
              "      (0): Embedding(3, 3)\n",
              "      (1): Embedding(3, 3)\n",
              "      (2): Embedding(3, 3)\n",
              "      (3): Embedding(3, 3)\n",
              "      (4): Embedding(3, 3)\n",
              "      (5): Embedding(3, 3)\n",
              "      (6): Embedding(3, 3)\n",
              "      (7): Embedding(3, 3)\n",
              "    )\n",
              "    (emb_drop): Dropout(p=0.0, inplace=False)\n",
              "    (bn_cont): BatchNorm1d(6, eps=1e-05, momentum=0.1, affine=True, track_running_stats=True)\n",
              "    (layers): Sequential(\n",
              "      (0): Linear(in_features=30, out_features=100, bias=True)\n",
              "      (1): ReLU(inplace=True)\n",
              "      (2): BatchNorm1d(100, eps=1e-05, momentum=0.1, affine=True, track_running_stats=True)\n",
              "      (3): Dropout(p=0.2, inplace=False)\n",
              "      (4): Linear(in_features=100, out_features=200, bias=True)\n",
              "      (5): ReLU(inplace=True)\n",
              "      (6): BatchNorm1d(200, eps=1e-05, momentum=0.1, affine=True, track_running_stats=True)\n",
              "      (7): Dropout(p=0.2, inplace=False)\n",
              "      (8): Linear(in_features=200, out_features=18, bias=True)\n",
              "    )\n",
              "  )\n",
              "  (layers): Sequential(\n",
              "    (0): BatchNorm1d(36, eps=1e-05, momentum=0.1, affine=True, track_running_stats=True)\n",
              "    (1): Dropout(p=0.2, inplace=False)\n",
              "    (2): Linear(in_features=36, out_features=32, bias=True)\n",
              "    (3): ReLU(inplace=True)\n",
              "    (4): BatchNorm1d(32, eps=1e-05, momentum=0.1, affine=True, track_running_stats=True)\n",
              "    (5): Dropout(p=0.2, inplace=False)\n",
              "    (6): Linear(in_features=32, out_features=6, bias=True)\n",
              "  )\n",
              ")"
            ]
          },
          "metadata": {},
          "execution_count": 32
        }
      ]
    },
    {
      "cell_type": "code",
      "metadata": {
        "colab": {
          "base_uri": "https://localhost:8080/"
        },
        "id": "ejwRtdjuF0FI",
        "outputId": "adbadf06-5ad4-4c67-8854-dffeda7c3555"
…
